Lab01/checkpoints/mlp_1/best_model.pth (torch, 33341 bytes, 2 tensors)

linear.weight f4 [10, 784]
0	0x3c8ccdfc	0.017188065
1	0x3cef7fba	0.02923571
2	0x3c61a610	0.013772503
3	0x3c877f4e	0.016540196
4	0xbc896170	-0.016770095
5	0xbc11520a	-0.008869657
6	0xbc7d0566	-0.015443182
7	0x3c86973c	0.016429536
8	0xbcc93ece	-0.02456608
9	0x3c9fc39e	0.019502457
10	0xbcb57b3c	-0.02215349
11	0xbce8f0be	-0.028435107
12	0xbd591222	-0.05299581
13	0xbe5ee028	-0.21765196
14	0xbe4ad5ce	-0.19808123
15	0xbd25b2fd	-0.0404539
16	0x3cfc971e	0.030833777
17	0x3d004241	0.031313185
18	0xbb95e7c0	-0.004574746
19	0xbcf9df6a	-0.03050204
20	0xbcc458e3	-0.023968166
21	0xbc9ec645	-0.019381652
22	0xbbd7eddc	-0.0065896343
23	0x3b8e66b8	0.004345741
24	0xbb25fd20	-0.0025327876
25	0x3c307a48	0.010771342
26	0xbc994ef0	-0.018714398
27	0x3c782390	0.0151451975
28	0x3c00a4f8	0.007851832
29	0xbc98bfce	-0.018646147
30	0xbc3bfab2	-0.011473345
31	0xbd0a50a0	-0.033768296
32	0x3b93db61	0.004512236
33	0xbd347104	-0.044053093
34	0xbe26dca9	-0.16295113
35	0xbdadb27a	-0.08481307
36	0xbe00dcf7	-0.12584291
37	0xbf11c8c4	-0.5694697
38	0xbfd4966a	-1.6608403
39	0x3fc77ec5	1.5585562
40	0x3fecc7c9	1.849847
41	0x3fe30a34	1.7737489
42	0xc06e21a3	-3.720803
43	0x401d1aab	2.4547527
44	0x401eaabf	2.4791715
45	0x4021265a	2.5179658
46	0xbfa64aba	-1.2991555
47	0xbe8272ec	-0.25478303
48	0xbeb91f21	-0.36156562
49	0xbf32ad09	-0.6979528
50	0xbde3a837	-0.11116069
51	0xbdac31df	-0.0840795
52	0xbc63bd38	-0.013900094
53	0x3d07bd93	0.033139776
54	0x3cc6ab8e	0.024251726
55	0xbcb3bb10	-0.021939784
56	0xbc8a4c27	-0.016882015
57	0x3c3d3304	0.011547808
58	0xbddc05a4	-0.10743263
59	0x3fcbcfdc	1.5922809
60	0x3fc4ef15	1.5385462
61	0xbf4641f9	-0.77444416
62	0xbf8c250e	-1.0948808
63	0x3d923dba	0.0714068
64	0xbff1bc27	-1.8885545
65	0xc0530e2c	-3.29774
66	0xc06f8526	-3.7425017
67	0xbfc74ac7	-1.5569695
68	0xc0090a29	-2.1412451
69	0xc00cd4ae	-2.200481
70	0xc097dd9d	-4.7458024
71	0xc0bd3af6	-5.9134474
72	0xbfc1db60	-1.5145073
73	0xc06ae762	-3.6703725
74	0xc0213090	-2.518589
75	0xbfdf6c99	-1.7455016
76	0xc05f9104	-3.493226
77	0xc00c9925	-2.1968472
78	0xc00fa37c	-2.2443533
79	0xc02f94ac	-2.7434492
80	0xbf93ae29	-1.1537524
81	0xbe621829	-0.22079529
82	0x3cdb4992	0.02676848
83	0xbc04b100	-0.008098841
84	0x3c841f78	0.016128287
85	0xb9a26100	-0.00030971318
86	0xbd92b683	-0.071637176
87	0x3f526259	0.82181317
88	0xbf3a04fe	-0.7266387
89	0x3f57838e	0.8418511
90	0xbf66e00a	-0.90185606
91	0xc01e3068	-2.4717045
92	0x3e8ce110	0.2751546
93	0xbf8111c9	-1.0083553
94	0xbf424a61	-0.75894743
95	0xbc917e93	-0.01776055
96	0xbf86a013	-1.0517601
97	0x3f4cd3b8	0.8001056
98	0x3f25e0ef	0.64796346
99	0xbeb5f2ac	-0.35536706
100	0x3e5251fe	0.2053909
101	0xbd02b7f5	-0.031913716
102	0xbf611b29	-0.8793207
103	0xbf902bfc	-1.1263423
104	0xbc08f8e8	-0.008360125
105	0xbfdc0b7f	-1.7191008
106	0xbf28bb4e	-0.65910804
107	0xbea9cb48	-0.33162904
108	0xbfc4c39f	-1.5372199
109	0x3f32c213	0.69827384
110	0xbfbf537f	-1.4947356
111	0xbab18f00	-0.0013546646
112	0xbcd38b55	-0.025823275
113	0xbd0a0f02	-0.03370572
114	0xbe577f40	-0.21044636
115	0xbfc954d9	-1.5729018
116	0xbfd1e8bf	-1.6399153
117	0xc09030b1	-4.505944
118	0xbfedcdc6	-1.8578422
119	0xbf308fd7	-0.6896948
120	0xbe06506e	-0.13116619
121	0x3f5881f8	0.84573317
122	0xbf079655	-0.52963763
123	0x3f0a0b60	0.53923607
124	0xbf9037bd	-1.126701
125	0x3eccee37	0.40025494
126	0xbee3a487	-0.44461462
127	0x3ed950c1	0.42444423
128	0xbf3c18ef	-0.73475546
129	0x3e74ef57	0.23919426
130	0x3e1a8f21	0.15093662
131	0x3d8e2142	0.06939937
132	0x3df8e0d7	0.1215226
133	0xbf6ab1c5	-0.91677505
134	0x3e4c074e	0.19924662
135	0x3e531541	0.20613576
136	0xbf6d3091	-0.9265223
137	0xbf4769cd	-0.77895814
138	0xc0031519	-2.0481627
139	0xbf81ce77	-1.0141133
140	0xbb9cbe54	-0.004783431
141	0x3c167ba8	0.009184755
142	0xc02686af	-2.6019704
143	0xbf9b70b2	-1.2143767
144	0xbf31253d	-0.69197446
145	0xc04c648f	-3.1936376
146	0x3d1a6265	0.037691493
147	0xbf0ab91e	-0.54188716
148	0xbe40a7f0	-0.18814063
149	0xbdf2737d	-0.11838434
150	0x3f3c1ec6	0.73484457
151	0x3e8713e2	0.26382357
152	0xbf1cc645	-0.61240035
153	0xba89ab12	-0.0010503253
154	0x3e93ec33	0.28891143
155	0x3dac1e61	0.08404232
156	0xbe097fac	-0.13427609
157	0x3eaf052d	0.34183636
158	0x3e7b8a64	0.2456451
159	0x3e22f4a3	0.15913634
160	0xbebe201f	-0.3713388
161	0xbec4f126	-0.38465232
162	0x3d32e5cd	0.043676186
163	0xbf443968	-0.76650095
164	0xbf0bfbe9	-0.5468126
165	0xbfea8f32	-1.832495
166	0xc036c858	-2.855978
167	0xc005be63	-2.0897453
168	0x3cfce80e	0.030872371
169	0xbf49b5f9	-0.78793293
170	0xc027e141	-2.6231234
171	0xc034d2dd	-2.82537
172	0xbf87f399	-1.0621215
173	0xbefca25d	-0.49342623
174	0xbd743bfa	-0.05962751
175	0x3cdbd488	0.026834741
176	0xbe2da3fc	-0.16957086
177	0xbfdb08e3	-1.7112087
178	0xbed9cf59	-0.42541006
179	0xbe711cb0	-0.235461
180	0xbe7a327c	-0.24433321
181	0x3f15703e	0.58374393
182	0x3e8ff051	0.28113034
183	0xbe9065d6	-0.28202695
184	0x3d59bd32	0.053158946
185	0xbdda0e4e	-0.1064726
186	0x3e6eee86	0.23333177
187	0xbe868405	-0.26272598
188	0xbdaab614	-0.0833551
189	0x3f870436	1.054816
190	0x3f790306	0.9727024
191	0xbf4f9571	-0.81087404
192	0xbfdbb886	-1.7165687
193	0xc075bbb0	-3.8395805
194	0xc09b7942	-4.858552
195	0xc01818b0	-2.3765068
196	0xbcfc109f	-0.030769644
197	0xc0171dfc	-2.361205
198	0xbff71ce7	-1.9305695
199	0xbfe81869	-1.8132449
200	0xbff07c9e	-1.878803
201	0xbea5e7ff	-0.3240356
202	0x3f030cbf	0.51191324
203	0x3d540ecf	0.051771935
204	0xbf828759	-1.0197555
205	0x3e83b491	0.257237
206	0xbdd3fb44	-0.103506595
207	0x3e7ca7b3	0.24673347
208	0xbe9b2ee7	-0.3030922
209	0x3e3fae5f	0.18718861
210	0x3dadf1ab	0.0849336
211	0xbe9b3e5e	-0.3032102
212	0xbea72c38	-0.32650924
213	0x3f2adef2	0.6674644
214	0x3f10c37e	0.565483
215	0x3dc0692b	0.09395059
216	0xbd239054	-0.039932564
217	0xbea6fe50	-0.326159
218	0xbf1321b9	-0.5747333
219	0x3edccea9	0.4312642
220	0xbded0109	-0.11572463
221	0xbfecb8f6	-1.8493946
222	0xc08de4fe	-4.434203
223	0xbff9b957	-1.9509686
224	0x4034be52	2.8241162
225	0xc01c70b0	-2.444378
226	0x3fecd4ca	1.8502438
227	0x4000ed9e	2.014503
228	0xc00f8109	-2.2422507
229	0xbf615944	-0.88026834
230	0xbe7c31b8	-0.24628341
231	0xbd4db641	-0.05022264
232	0x3e5937ff	0.21212767
233	0x3ee8dbbd	0.45480147
234	0xbef20d22	-0.47275645
235	0xbece5be2	-0.40304476
236	0x3ee541f3	0.44776878
237	0xbe65f900	-0.22458267
238	0x3eff5971	0.49872926
239	0x3e20f10d	0.15716954
240	0x3fa7b79c	1.3102908
241	0x3f08996d	0.5335911
242	0x3e8a963d	0.27067748
243	0xbf18fdb9	-0.5976215
244	0x3ea3ab3c	0.3196658
245	0x3ede8f86	0.43468875
246	0x3ed83731	0.42229608
247	0x3f10950e	0.5647744
248	0x3cadcd87	0.021216167
249	0xc06983f6	-3.6486793
250	0xc0b19b65	-5.550219
251	0xc00ab71b	-2.1674259
252	0xbdd68690	-0.104748845
253	0xbf108949	-0.5645948
254	0x403dc3ba	2.9650712
255	0x3ea59a88	0.3234446

linear.bias f4 [10]
0	0xbfee4157	-1.861369
1	0x3fc94308	1.5723581
2	0x3ef1acd9	0.47202185
3	0xbf5099c9	-0.8148466
4	0x3ecf7c43	0.40524492
5	0x403e430f	2.972843
6	0xbf4ef6b8	-0.8084521
7	0x3fd58755	1.6681925
8	0xc02fd7f6	-2.7475562
9	0xbf2cbd02	-0.67475903
